mnist_trained.pt (torch, 92903 bytes, 16 tensors)

conv1.weight f4 [10, 1, 5, 5]
000000 16 67 93 3d a9 66 a8 bd 3a 39 b0 bd 0f 2b b4 3b
       0.071973965 -0.08222706 -0.08604665 0.005498297
000010 4f 59 41 be 28 b7 d0 3d 6f 62 69 3c 36 e6 9f 3d
       -0.18881725 0.10191184 0.01424466 0.07807581
000020 e9 01 12 3d 7a b3 8c 3c 4e 05 31 3d 15 63 a0 3d
       0.035646353 0.017175425 0.04321795 0.078313984
000030 87 f3 fd 3d 0c 1e f9 3b 2e ba a8 3c b8 e6 0b bd
       0.12399965 0.007602459 0.02059659 -0.034155577
000040 ac 1c 77 3d 8c a2 d6 3c a2 2c 36 3e 2f 12 ac 3d
       0.060330078 0.026200555 0.17790464 0.08401906
000050 3b 67 c3 bd 38 af 0c be 2b c4 da bd 8c ed 03 be
       -0.09541174 -0.13738716 -0.10681947 -0.12883586
000060 5d 4e 41 bd 55 d7 64 bd a9 b5 cf 3d 14 e8 9f 3d
       -0.047193874 -0.05586942 0.10142071 0.07807937
000070 7c ab 85 be fb c6 21 3d 07 e2 b9 3b f1 0e 38 3e
       -0.26107395 0.039496403 0.0056726965 0.1797445
000080 cb b8 c6 3d 6d 86 5a be 02 12 4f be fb 13 c1 bd
       0.09703215 -0.21340342 -0.20221713 -0.09427639
000090 38 c1 47 3e 5a 20 69 bd f0 ff 26 3d 5e 7b cb bd
       0.19507301 -0.05691562 0.040771425 -0.0993564
0000a0 b8 b8 35 3e 03 32 b3 bd af eb e6 3d 22 6f 10 bd
       0.17746246 -0.08749773 0.11275422 -0.035262235
0000b0 a0 c2 da bd 9c cc b9 3d 5b 6d c8 bd 6e 6c 37 3d
       -0.10681653 0.09072229 -0.09786483 0.04478114
0000c0 ff 73 93 bd a8 d7 a6 bc 0e 94 48 be 06 6b e6 bd
       -0.07199859 -0.020366505 -0.19587728 -0.11250882
0000d0 6f b2 ac 3d 7d fb 45 bd b6 ad 49 3e 06 c6 fe 3d
       0.08432471 -0.04833554 0.19695172 0.12440114
0000e0 d1 6d 11 bd 33 35 ec bd a1 55 1a 3e b4 cb 93 3d
       -0.03550512 -0.115335844 0.15071727 0.07216588
0000f0 68 00 01 be 10 c5 fa 3d d6 c6 09 3e 88 a3 3b 3e
       -0.12597811 0.12244618 0.13454756 0.18324101
000100 d8 4b 01 be 9c e8 e0 bb 9c 95 dc 3b df 04 0e bb
       -0.12626588 -0.0068636667 0.006731702 -0.0021670384
000110 2d 70 31 be d4 d2 24 be 9d 5a ae 3d 57 3e 8d bd
       -0.17327948 -0.1609605 0.08513377 -0.06896656
000120 32 82 23 3d fc 90 60 bc 24 25 85 3d 62 4a 27 3d
       0.039919086 -0.013706442 0.06501225 0.04084242
000130 19 fc bc 3d e2 e0 da 3d c6 ea 29 be 4b 3b 25 3e
       0.09227771 0.10687424 -0.16593465 0.161359
000140 95 d1 15 be 87 5c 0f be 16 d0 4a bc 91 d6 92 bd
       -0.1463073 -0.1400014 -0.012378713 -0.071698315
000150 59 04 d3 3d ce bc fb bd a8 f2 40 be 81 81 98 3d
       0.103035636 -0.12291871 -0.18842566 0.07446576
000160 f3 6c cc bd 14 cc db 3d 8e 35 6f 3d a9 45 41 be
       -0.09981718 0.10732284 0.058400683 -0.1887423
000170 96 cf 4b bd f0 d8 90 3a a8 26 b1 bd f4 cb c6 bd
       -0.049758516 0.001105098 -0.08649951 -0.0970687
000180 6c a1 5e 3d 4b 5c 15 bc f0 c3 ad bd 08 3e bf bc
       0.054353163 -0.009116243 -0.08484638 -0.023345008
000190 49 69 51 3e e6 c2 03 bd 53 1e f4 3d 6a f1 c4 3d
       0.2045032 -0.03216829 0.119198464 0.096163586
0001a0 8f a0 02 be d9 6a 25 be d3 b8 43 3e e8 9a 7d 3c
       -0.1275656 -0.1615404 0.19113474 0.015478827
0001b0 0f 5c 0c 3e 00 66 0e 3d f0 bf 59 3d 30 a3 10 3e
       0.13706993 0.034765244 0.05316156 0.14124751
0001c0 40 dd 3d 3e a0 30 0c be f7 3f 9f 3c 31 3c 12 3e
       0.18541431 -0.13690424 0.01943968 0.14280774
0001d0 4e fb 12 3e ba 22 00 3e 6d 4e 0c be 1b 13 04 be
       0.14353678 0.12513247 -0.13701792 -0.12897913
0001e0 99 ec eb bd 05 c6 08 3d 10 7c 59 3e 0f 90 d6 bd
       -0.11519737 0.03339197 0.21238732 -0.10476696
0001f0 1f 0b 09 3e 7b a6 c4 bd 60 fa 38 be 66 97 6e bd
       0.13383149 -0.09602066 -0.1806426 -0.058249854
000200 b5 eb cf 3d 9c 8b 3f 3e 1d 19 d5 bd 5b 00 77 3d
       0.101523794 0.187056 -0.104051806 0.060303073
000210 93 39 3c 3e 1e 09 16 3e 13 68 06 3e 35 e3 22 3e
       0.18381338 0.14651915 0.13125639 0.15906985
000220 04 c8 02 3e a6 bc 0a 3d df 19 0e be 45 49 1d be
       0.12771612 0.033871315 -0.13877057 -0.15359981
000230 0d e7 af bd 9d 8d 26 bd ee ee 1a be d9 c3 73 3d
       -0.08588991 -0.040662397 -0.15130207 0.059512947
000240 aa 7a a4 3d 45 0d 02 bd 93 c1 a1 3d 3f ea 75 3d
       0.08031209 -0.031750936 0.078982495 0.060037848
000250 de 78 e1 3d 32 c9 06 3e f6 05 32 bd a3 a8 3c 3e
       0.11009382 0.13162687 -0.043462716 0.18423705
000260 96 cb c7 bc 97 44 b3 bc c3 f2 57 be c7 78 f5 bd
       -0.02438907 -0.021883292 -0.210887 -0.11985927
000270 5d a5 11 be dc d2 e4 bd 70 24 e3 3d 2f dc 96 bd
       -0.14223237 -0.11173031 0.11090934 -0.073662154
000280 39 a6 e9 bd f9 fd 60 3d 9e 03 0f 3d e8 66 e2 3d
       -0.114086576 0.054929707 0.03491556 0.11054784
000290 65 28 d2 bd f8 88 f0 3d 3b a2 62 bd 02 d3 19 bd
       -0.10261611 0.11744875 -0.055330496 -0.03755475
0002a0 e4 b1 13 be b2 39 95 bd 13 dc dd 3b b0 e8 e8 3d
       -0.14423329 -0.07286395 0.0067706197 0.113725066
0002b0 8f 88 9d 3d cc 17 be 3d 5e 84 63 3e 8f a8 15 3e
       0.07692062 0.09281883 0.22218463 0.14615081
0002c0 43 e8 09 3e cb ac 2a 3d ee d3 d5 bd 22 9f 1c 3e
       0.13467507 0.041668694 -0.10440813 0.1529508
0002d0 82 ce 9c bd dc 8b 76 bc 07 74 09 be c7 7c 2d bd
       -0.07656576 -0.0150479935 -0.13423167 -0.042355325
0002e0 70 1e 1d be 03 b4 22 3e ec 2f 2b be 4e 8b 13 be
       -0.15343642 0.15888982 -0.167175 -0.1440861
0002f0 c9 d1 00 bd 54 11 05 be 13 91 ac 3d 50 f7 2f bd
       -0.031450067 -0.12994891 0.08426108 -0.042960465
000300 32 30 a8 bd 14 8b 8f 3b 24 97 0d 3e 0e a5 a6 bd
       -0.082123175 0.004380593 0.13827187 -0.081369504
000310 70 a0 29 3e 34 92 4a 3e 46 6f 69 3e 69 91 1d be
       0.16565108 0.19782335 0.22796354 -0.15387501
000320 49 cc 7c 3d b8 32 05 be 4f 2e 38 3e 47 8b 7c bd
       0.06171826 -0.13007629 0.17986415 -0.061656263
000330 ad b7 04 3e a2 6b 0d bc 68 a3 1a bd ac b8 c1 bc
       0.12960692 -0.008631619 -0.037753493 -0.023647629
000340 80 02 da 3c 44 c2 c1 3d 12 99 06 3c 6e 3a 19 3d
       0.02661252 0.09460881 0.008215206 0.03740924
000350 b0 f7 4f be 0d 80 f0 3d 11 87 28 3e 56 d4 28 3e
       -0.20309329 0.11743174 0.16457774 0.1648725
000360 59 d7 17 3e a7 12 1e be 42 35 b3 bd 7f d6 2d 3e
       0.14828242 -0.15436803 -0.087503925 0.16976355
000370 47 63 19 be 85 f6 3b 3e 1f 7a 23 be a9 98 27 be
       -0.14979278 0.18355758 -0.15964554 -0.16366829
000380 84 5a a2 3d 93 f9 c9 bd 3f 28 8b 3b 3f 8e 27 3e
       0.07927421 -0.09862056 0.004246741 0.16362856
000390 2a ea 2d 3e bb 15 57 3e 74 9e 6a bb 84 dd f9 bd
       0.16983858 0.21004383 -0.0035800012 -0.12200454
0003a0 60 30 5a 3e 34 d7 6c bc 4b fa 2d bd 0a 80 74 3d
       0.21307516 -0.014455605 -0.042475026 0.05969242
0003b0 e1 6f 0c be 43 19 fe 3d ef 66 13 3e b4 9a fd bd
       -0.13714553 0.12407162 0.14394735 -0.12383023
0003c0 e1 d4 3d be 02 05 14 bd 51 56 91 3d 6a 94 43 3b
       -0.18538238 -0.03613759 0.07096542 0.00298431
0003d0 9a 80 c6 bd 08 2d 06 bd 56 f6 57 be 4b b8 19 be
       -0.096924976 -0.03275779 -0.21090063 -0.15011708
0003e0 22 6e 04 be 41 8f 1f 3e
       -0.12932637 0.15581991

conv1.bias f4 [10]
000000 5c 88 f0 3d 14 73 c6 bd e5 ed 66 bc 9f 0d af 3d
       0.117447585 -0.09689918 -0.014094804 0.0854752
000010 34 6e c3 3c b9 e2 af bd 8f c2 cf 3d fd c0 e3 3d
       0.02385626 -0.08588166 0.10144531 0.11120794
000020 94 df 27 bc 0e ed a7 bc
       -0.010246176 -0.020498779

bn1.weight f4 [10]
000000 7e e3 82 3f 1e 11 85 3f 83 f0 80 3f 70 fd 75 3f
       1.0225675 1.0395849 1.0073398 0.9608984
000010 29 ea 80 3f cd 83 7d 3f 62 91 7f 3f d5 15 7b 3f
       1.007146 0.9902924 0.9983121 0.9808019
000020 b3 33 7d 3f aa c4 7e 3f
       0.9890701 0.99518836

bn1.bias f4 [10]
000000 d2 fd d2 3c 20 2f c6 bb 31 fb aa ba 7b 9c 2f bc
       0.025755797 -0.006048098 -0.0013044832 -0.01071846
000010 98 74 92 3b 3c b4 a8 3b 2c 73 ca b8 10 7b b6 3c
       0.0044694655 0.0051484387 -9.653563e-05 0.022275478
000020 4d c0 53 3c f3 be 27 3c
       0.012924266 0.010238397

bn1.running_mean f4 [10]
000000 09 8e a8 3e 21 99 7c 3e c9 36 88 3e 98 1e b1 3e
       0.32920864 0.24667789 0.26604298 0.34593654
000010 be ce 2a 3f d7 57 e8 3e b2 48 a8 3e 22 e9 d7 3e
       0.66721714 0.45379516 0.32867962 0.42170054
000020 69 f2 a9 3e 4c 60 b3 3e
       0.33192757 0.35034406

bn1.running_var f4 [10]
000000 1f d8 4e 3e 5f 29 78 3e d6 dd 58 3e cb fb 8f 3d
       0.20199631 0.24234532 0.21178374 0.070304476
000010 3c f3 81 3f 4e 70 e1 3e 5c e3 0a 3e 59 0d 7c 3e
       1.0152354 0.44030994 0.13563293 0.24614467
000020 2f e5 6d 3e fc 20 b6 3e
       0.23231958 0.3557204

conv2.weight f4 [20, 10, 5, 5]
000000 ce f4 e4 3c f7 44 fc 3c 60 59 2e bd 30 93 44 3d
       0.027948763 0.030794604 -0.042565703 0.04799193
000010 a1 26 a6 3b 87 18 6e bd b6 4c 62 3b 7d dd 8c bd
       0.005070523 -0.05812886 0.0034530587 -0.06878183
000020 aa eb 73 3d 03 84 58 bc 57 8e ec 3b a6 15 f1 bb
       0.05955092 -0.013215068 0.0072191167 -0.007357317
000030 29 3a e1 bb 3a 9e 65 3d 6a 37 ea bb b3 a0 1f bd
       -0.0068733883 0.0560591 -0.007147719 -0.038971614
000040 d8 4e 8e bd 48 f1 4d bc f2 8e 9a bc 96 f3 90 3c
       -0.06948632 -0.012569733 -0.01886699 0.017694276
000050 e8 ef 85 bc 58 70 7f 3c f4 42 72 3d b0 5a 0a 3d
       -0.016349748 0.01559075 0.059145883 0.033777893
000060 73 ca d7 ba 03 5f 33 bd 6d 1b 81 bd 19 8d 55 3d
       -0.0016463533 -0.043791782 -0.06304059 0.052136514
000070 ea f2 a8 bb ce 68 8f 3c 76 eb a7 bb 82 7c 59 bd
       -0.0051559107 0.01750603 -0.0051245047 -0.053097256
000080 45 13 fe 3c 18 98 39 3d 04 c7 80 3b e4 f8 2c bd
       0.031015048 0.045311064 0.0039299745 -0.042229548
000090 bd b2 0c bd 42 3d cf 3b ee c0 18 bd e4 fe 4b bd
       -0.034350146 0.006324441 -0.037293367 -0.04980363
0000a0 fc 59 cd ba f7 39 98 bb 2a b7 03 3d f6 30 f0 bc
       -0.0015667076 -0.004645582 0.0321571 -0.029320221
0000b0 bd bb 07 bd 2c d1 3e bc f3 09 ab bc 59 14 85 3d
       -0.033138026 -0.01164655 -0.020878768 0.06498022
0000c0 a0 90 2f bc dc b2 ca 3c 7f c5 8a 3c 44 28 e1 bc
       -0.010715634 0.02474349 0.016939877 -0.02748502
0000d0 fb 51 aa bd 27 be d4 bc 93 8b 5e 3d b8 44 70 bd
       -0.08316418 -0.025969578 0.054332327 -0.058659285
0000e0 b3 f5 c8 bc e2 3b 42 3d 6e 3b 26 3d 49 6e b1 3c
       -0.024531221 0.04742039 0.04058402 0.021659033
0000f0 78 a3 ae 3b 13 12 98 3c 90 6d 91 3c 26 79 0c bc
       0.0053295456 0.018563306 0.017752439 -0.008573806
000100 25 cf 45 3d 06 20 08 bc b3 32 8f bc 50 13 f0 3c
       0.04829325 -0.008308416 -0.01748023 0.029306084
000110 ca a7 19 bd 14 97 be bb 1d c1 17 3d 5c 64 55 3c
       -0.03751353 -0.0058163498 0.0370494 0.013024416
000120 c4 a8 26 3d 64 5e 4c bd 40 41 25 3a f9 97 13 bc
       0.04068829 -0.049894705 0.00063039735 -0.009008401
000130 17 e0 37 bd d0 00 f8 bc c9 6d b4 3b 59 95 9f bc
       -0.044891443 -0.030273825 0.0055062515 -0.019480394
000140 b1 b7 3e bd cf 4b 16 bd 18 42 2c bd 90 95 46 3d
       -0.0465619 -0.03669339 -0.04205522 0.048482478
000150 cd 3f 63 bc 6b e9 3f bd 26 bd dc bc 9f 2b ca bc
       -0.013870192 -0.046853464 -0.026945662 -0.024679003
000160 81 b0 52 bd 81 9d f7 bc c8 88 8a 3c 51 2a eb 3c
       -0.05143786 -0.03022647 0.016910926 0.028706701
000170 c5 09 7c bb ca 4d c1 bc 65 c9 11 3d 02 8a 18 3d
       -0.0038457972 -0.023596663 0.035592455 0.03724099
000180 2c 05 88 3d 98 4b f6 3c 11 4d 0a 3d 9a 06 7c bc
       0.066416115 0.030065343 0.033764903 -0.015382433
000190 ce f8 43 bd 4b 7e 97 bd 41 b0 12 3d a3 1b f1 bb
       -0.0478447 -0.07397135 0.03581262 -0.007358031
0001a0 b2 1c 00 3d eb af 0e bc 5a 41 a0 bd 5c a3 f1 bc
       0.031277366 -0.008708934 -0.07824965 -0.029496841
0001b0 1a 74 dc 3c 1d 6a 3c bc 25 17 60 bd b4 b4 86 3c
       0.02691083 -0.011499909 -0.054709572 0.016443588
0001c0 4e 27 ed 3b ef ef 97 bc b8 39 dd 3c a9 6e af 3c
       0.0072373515 -0.018547026 0.027005062 0.021415072
0001d0 3e 4f b2 bc 64 77 69 3d d6 6e df 3c 9e 33 5b bb
       -0.021766301 0.056998625 0.02727453 -0.0033447514
0001e0 4a 88 d3 ba 04 b1 65 bd 43 d6 1c 3d 4c 8b a8 bc
       -0.001613864 -0.05607702 0.038290273 -0.020574234
0001f0 ee 09 42 bd 8a 9d 5b 3d 59 7d eb 3c 02 4b 8c 3b
       -0.04737275 0.053617038 0.028746294 0.0042814026
000200 33 f2 1d bc d5 8d 8d ba 68 ce 23 3c cb 6a 4b 3d
       -0.009640264 -0.0010799716 0.009997942 0.049662393
000210 fd c7 92 3c 80 6d 46 bc db 50 8f 3d 24 0f ba 3b
       0.017917627 -0.012111068 0.06997844 0.0056780744
000220 38 78 85 3d 30 51 13 3d e8 e7 8e 3d a5 21 3b 3d
       0.065170705 0.0359661 0.06977826 0.045686383
000230 a6 09 07 bd 0a 3d 5a 3d 4b 1e 8c 3c ab 5d 0a bd
       -0.032968186 0.053280868 0.017104289 -0.033780735
000240 4c 22 d9 b8 91 db 6a bd de bc 8f bc ae b4 d3 bc
       -0.000103537546 -0.0573383 -0.017546114 -0.02584299
000250 b2 bc 33 3d 6b 2f 99 bb 60 7b 87 bc c3 39 a0 3c
       0.043881126 -0.004674842 -0.016538322 0.019558793
000260 10 53 9d 3c 06 9b 2f bd b5 5f 2c 3d 6f c1 11 3d
       0.019204646 -0.04287245 0.04208346 0.035584863
000270 18 72 75 bd 3d 11 64 3d bc a0 0c bd 9f ec b7 bb
       -0.05992326 0.055680502 -0.034332976 -0.005612924
000280 51 d0 3f bd b9 ff 1c 3d 65 5d 93 3b b1 86 1f 3d
       -0.046829525 0.038329814 0.0044972175 0.03894681
000290 79 83 7d 3c 4b 4a b6 3c ed e2 da bc a2 44 2a bd
       0.01547324 0.022252223 -0.026719535 -0.04156936
0002a0 32 80 63 3c 3c 92 9e 3c 08 0e c0 37 66 6b ac bc
       0.013885545 0.01935684 2.2894717e-05 -0.021047305
0002b0 40 de 94 3c eb 69 36 3d d5 02 5a 3d 0d 36 3b bd
       0.018172383 0.044534605 0.053225357 -0.045705844
0002c0 d9 21 ae 3c bc 79 7f bc 20 04 50 3c 22 7e 2a 3d
       0.021256374 -0.015592989 0.012696296 0.041624196
0002d0 d9 31 a9 bc 71 69 a7 3d 83 a1 90 bd 35 ad 0c 3d
       -0.020653652 0.08174408 -0.07062056 0.03434487
0002e0 2b d5 d2 3c f0 62 12 3d 6a 1a 9a bc 53 20 24 3d
       0.025736412 0.035738885 -0.018811423 0.04006989
0002f0 08 24 77 bc 4f ed 3f bd 23 0a db 3c 42 7c 37 3d
       -0.015084274 -0.046857174 0.026738232 0.044796236
000300 a5 94 9e 3d a1 9a d3 3c 5a fe aa 3d 9f 43 1d 3d
       0.077431954 0.025830569 0.08349295 0.038394567
000310 15 2f 98 bc 80 38 a9 bc 23 44 65 3d f3 46 57 bc
       -0.018577138 -0.020656824 0.055973183 -0.013139474
000320 86 70 93 3c c9 76 34 bd 85 dd 08 3d c6 c8 99 3c
       0.017997991 -0.044058595 0.033414382 0.018772494
000330 d7 a7 84 bc 26 48 78 bb eb a2 ff bc d4 02 a1 bc
       -0.016193314 -0.00378848 -0.031205615 -0.019654669
000340 ff 62 0f 3c ae 55 e8 bc 07 76 2a bd fe 6d 45 bc
       0.00875163 -0.028361168 -0.041616466 -0.01205015
000350 77 3d 5b 3d 80 3c 6a 3d 9d 39 8f 3d 64 bc e4 3c
       0.053525414 0.057186604 0.06993411 0.027921863
000360 37 2d 49 bd 44 e3 ae 3c 28 f9 bc 3c ad c1 25 bd
       -0.049115386 0.021348603 0.023068026 -0.040467907
000370 0f e7 84 3c da 6a 8c bc fe 8a 74 3c 0c fe 9c 3c
       0.016223459 -0.017140795 0.014925716 0.019164108
000380 07 6e 8a 3d 13 d5 20 bc e8 55 3c bd af b1 14 3d
       0.06759267 -0.009816426 -0.045980364 0.036302265
000390 e0 f5 93 3b 4a c1 08 3d d8 f7 bd 3c 40 69 0b bd
       0.0045153946 0.03338746 0.02318947 -0.03403592
0003a0 87 47 22 3d 1b 66 7e bd 43 89 8a 3b 5f ff 91 3c
       0.039618995 -0.062109094 0.0042277887 0.017821966
0003b0 ca 7e e6 3c 60 a7 a2 bc cd 7c 48 bd cc d7 23 3d
       0.02813663 -0.019855201 -0.048947144 0.04000072
0003c0 4f fd 60 bd bb de 7d bd 63 99 21 bd 6b c4 f0 bc
       -0.054929074 -0.06197999 -0.03945292 -0.029390534
0003d0 fa 74 04 3c 92 9d 22 bd 2d fd 17 bd 68 7a 23 bd
       0.00808453 -0.039701052 -0.03710668 -0.039911658
0003e0 e6 26 27 3d c5 28 a3 bb 52 fe 19 bd 56 af 8f 3c
       0.04080858 -0.0049792253 -0.037596054 0.017539661
0003f0 4a 3e 80 bd aa 33 99 3c 4d 3a d2 3c c5 dc 84 bd
       -0.06261881 0.018701393 0.025662566 -0.06487421

conv2.bias f4 [20]
000000 71 bc fe 3c 3b 8a 21 bc 94 22 72 3d 7f 6c bc bc
       0.031095715 -0.009859617 0.059115008 -0.023000954
000010 e6 a7 35 3c 1b 21 9e bd 8f cd 14 bd 06 c8 c2 bc
       0.011087393 -0.07721158 -0.03632885 -0.02377702
000020 e0 21 99 bd a9 c1 e1 bc ca ab 4f bb 33 af 80 bd
       -0.07477164 -0.027558165 -0.0031688088 -0.062834166
000030 74 0f 4a bd 4c 84 8c 3d 68 52 00 bd a9 21 4c bd
       -0.049331143 0.06861171 -0.03132859 -0.04983679
000040 fd 72 9f bc 7a 8a 15 bd 0e 02 6e bd 4d 50 b5 3b
       -0.01946401 -0.036509015 -0.05810743 0.0055332542

bn2.weight f4 [20]
000000 e6 27 8f 3f a3 51 92 3f 4c 92 8b 3f a4 5e 96 3f
       1.1184051 1.1431164 1.0904021 1.1747632
000010 7a 92 92 3f d9 cd 99 3f af 2b 8f 3f ec b0 91 3f
       1.1450951 1.2015945 1.1185206 1.1382117
000020 6d 0c 8e 3f 6a 1a 92 3f 35 7f 8d 3f f6 f5 97 3f
       1.1097542 1.1414311 1.1054446 1.1871936
000030 32 8f 8c 3f 88 46 95 3f a7 b3 8e 3f 46 96 8e 3f
       1.09812 1.166215 1.1148576 1.113961
000040 97 64 8e 3f 8c 01 90 3f 42 f2 92 3f 5f f1 8d 3f
       1.1124448 1.1250472 1.1480181 1.1089286

bn2.bias f4 [20]
000000 99 80 2b 3c 5d 7e 37 bc 30 34 cb 3b 54 72 c1 bc
       0.010467672 -0.011199561 0.0062012896 -0.023614086
000010 16 95 2a 3c 35 ac 12 3d 60 fe 64 bc a7 bd db bb
       0.010411521 0.03580876 -0.013976663 -0.006705958
000020 79 9e 80 bb 08 4f 69 3c d8 55 1e bc c3 9a e6 3a
       -0.0039251414 0.014240034 -0.009664021 0.001759373
000030 fc b6 49 bc f2 18 51 bc bf 18 ba bc 45 58 b8 3c
       -0.012311693 -0.012762295 -0.022716878 0.022503028
000040 3a e6 bb 3b 70 0e c6 bb f9 17 29 bc 9d 35 8b 3c
       0.0057342323 -0.0060442016 -0.010320657 0.016993338

bn2.running_mean f4 [20]
000000 92 88 50 3f 1e f2 20 3f dc c9 6f 3f 7f 3b 1c 3f
       0.8145839 0.6286944 0.9366739 0.61028284
000010 9b ee f7 3e 34 62 98 3e 3c e4 61 3f 90 e5 3c 3f
       0.4842423 0.29762423 0.88238883 0.73787785
000020 1c f5 a1 3e ee 0a ec 3e 9a 15 e9 3e ba 5b db 3e
       0.31632316 0.4610209 0.45524293 0.4284342
000030 6f 75 d5 3e 01 04 e0 3e 27 44 0e 3f d9 8b 35 3f
       0.41691157 0.43753055 0.5557274 0.70916516
000040 42 5d 08 3f 58 26 68 3f 45 3c 21 3f dc 69 d1 3e
       0.532673 0.9068351 0.6298259 0.40901077

bn2.running_var f4 [20]
000000 e2 be b3 3e 83 4b bf 3e 75 33 19 3f 4b 41 91 3e
       0.3510657 0.37362298 0.5984414 0.28370127
000010 10 4d 64 3e 92 ca 46 3e 18 5a 05 3f 84 24 e2 3e
       0.22295022 0.19413212 0.520906 0.44168484
000020 62 f8 20 3e bb 5f 38 3e d3 52 68 3e 52 b3 6a 3e
       0.1571975 0.18005268 0.22687845 0.22919968
000030 7b cd 56 3e 5d 44 45 3e ba 91 c7 3e 1d 39 db 3e
       0.20976822 0.1926436 0.38978368 0.4281701
000040 1f 95 73 3e 71 7e f8 3e d0 f0 ac 3e 69 f9 53 3e
       0.23787354 0.48533967 0.33777475 0.20700611

fc1.weight f4 [50, 320]
000000 ee 48 e1 bc 31 9b cf ba 12 02 ee 3c 1f 7f 21 bc
       -0.027500596 -0.0015839097 0.029053722 -0.009856968
000010 b7 65 7e 3d ff 26 39 bd 64 72 08 3d 54 89 c6 3c
       0.06210872 -0.045203205 0.033312216 0.024235405
000020 25 7e f1 bb 24 73 8d 3c bd 47 1d 3d 8b 4b 2f 3c
       -0.007369774 0.017266817 0.038398493 0.010699163
000030 95 e8 47 3c b1 88 fd bc 2b 87 f2 bb 8c 21 8e bb
       0.012201448 -0.030948969 -0.007401367 -0.004337495
000040 0d 91 50 bd c8 d6 b9 3a 5a b8 00 bd f1 d5 2f 3c
       -0.05091958 0.001417839 -0.03142581 0.01073216
000050 b1 26 e7 3c a2 72 72 bc 60 4c 25 3d eb fc f8 3b
       0.028216692 -0.014797838 0.04035604 0.0075985095
000060 af 07 77 3d 3b e5 84 bd 3c 5f 5c 3d aa 68 3d 3d
       0.060310062 -0.06489035 0.05380176 0.046242394
000070 06 21 d9 b9 f5 8a 42 bd ba 76 31 3d 45 51 23 3d
       -0.0004141407 -0.0474958 0.043326117 0.039872427
000080 fa b4 b0 bb ca df f0 3c 83 03 63 bd 00 22 85 bd
       -0.005392668 0.029403586 -0.05542327 -0.065006256
000090 24 3a 58 3d 75 a7 9f 3d f0 1b 16 3c 64 71 ed 3c
       0.052789822 0.07795612 0.009161934 0.028984733
0000a0 6b 0d 82 3d 24 b0 53 3d 6c dd 51 bd 03 6f 5f bb
       0.063502155 0.051681653 -0.051236555 -0.0034093268
0000b0 0e 32 02 bd f9 36 f1 bc 0d b0 77 3d e5 fa c5 3c
       -0.031786017 -0.029445158 0.06047063 0.024167487
0000c0 8c 78 50 bd a0 d1 06 3d 35 5b 00 3d 93 ba 24 3d
       -0.050896212 0.032914758 0.03133698 0.040216994
0000d0 07 a8 df bc 43 3d b8 3c a7 02 60 bd ae 02 74 3d
       -0.027301801 0.02249015 -0.05469003 0.059572868
0000e0 87 cd ea bb ae 8c 92 bc 71 18 73 bd 3e 6b 79 bc
       -0.007165614 -0.017889347 -0.05934948 -0.015223322
0000f0 47 64 99 bc e0 bc 94 bb 3f 5a d3 3c 9e 94 86 bd
       -0.018724574 -0.004539117 0.025799869 -0.06571315
000100 dd 19 0e 3d bd 65 ad 3c f7 91 06 3d bd a9 f3 3c
       0.034692634 0.021166677 0.032854047 0.029744023
000110 88 a1 4b bd b6 96 6e bc 80 90 27 bd d3 a5 42 bc
       -0.049714595 -0.0145622995 -0.04090929 -0.011880356
000120 e0 23 05 bd 0f 21 83 bc c8 10 f1 bb 72 7e 36 bc
       -0.032504916 -0.016006975 -0.007356737 -0.011138545
000130 4d f4 3b bc 28 ff 31 3c a9 48 cf bc 77 d7 56 bd
       -0.01147182 0.010864057 -0.025303202 -0.052451577
000140 48 62 35 bd a8 02 65 3d 24 07 7c 3c 9a bc ad bd
       -0.04428318 0.055910736 0.015382562 -0.084832385
000150 12 50 68 bd a6 6e 1f 3b af 4a db bc 64 ec 09 3c
       -0.056716986 0.0024327426 -0.02676901 0.008418176
000160 5d ae 25 bd fa fd 67 bc be 18 97 bc f5 9b 2e bd
       -0.04044949 -0.014159674 -0.018444415 -0.0426292
000170 69 a5 ac bc f6 e5 06 3d 84 cd 02 3d f1 99 38 bd
       -0.021074967 0.03293415 0.031934276 -0.045068685
000180 56 d2 d7 3b 8c 0e 2a 3d c1 c3 e0 3c b8 3f 25 3d
       0.0065863533 0.04151778 0.027437093 0.04034397
000190 63 b2 64 3d 17 cb 9f bc 2c 56 3d ba 99 7a b7 3d
       0.055834185 -0.01950602 -0.00072226184 0.089589305
0001a0 b8 f9 15 3d c6 f3 58 bd eb 9a eb 3c e2 d6 3b 3d
       0.036615103 -0.052966855 0.028760394 0.045859225
0001b0 58 e0 69 3d 0d 6c b0 bc fe b7 10 bd 7b 2c 83 3c
       0.057098716 -0.021535898 -0.03533172 0.01601242
0001c0 6b 18 a8 3c 1c f3 8d bd ae 11 7a 3d 82 39 04 3d
       0.020519456 -0.06931135 0.061052017 0.032281406
0001d0 2e 85 2a 3c c2 cd d4 ba 58 9d 52 bb 74 03 1d 3d
       0.010407729 -0.0016235637 -0.0032137241 0.03833337
0001e0 ba 82 e5 3c ee fb 4f 3d bb 61 77 bd 47 ce 28 3c
       0.028016437 0.05077737 -0.060395937 0.010303087
0001f0 3b 6a 07 3b 8e e1 fd 3b 28 da 6b 3c 91 96 5d 3d
       0.0020662684 0.0077478355 0.014395274 0.05409867
000200 02 c8 b4 bc f9 7c a8 bc 96 c8 70 3a c9 24 51 bd
       -0.022068027 -0.020567404 0.0009185163 -0.05106047
000210 3d 6a 14 3d 43 16 68 3d 6a 8f 36 3d b0 fd 70 3c
       0.03623413 0.056661855 0.044570364 0.014708921
000220 eb a6 e4 3c a5 88 1f bd a8 60 3e bb 52 54 07 3d
       0.027911624 -0.038948674 -0.002904931 0.0330394
000230 91 f9 2e bd a6 1d e9 bb dd 6b a8 bc 99 f4 35 bb
       -0.042718474 -0.00711413 -0.020559246 -0.00277642
000240 aa 13 e0 bc 53 f6 cf bc f4 18 8d 3a fa a4 30 3d
       -0.027353127 -0.025386011 0.0010764883 0.043126084
000250 d3 4c db 3c c2 e1 01 bc 93 fd 07 3d 54 26 80 bc
       0.026770031 -0.00792736 0.03320081 -0.015643276
000260 4c 4d e5 3c 2d ea 5a bc a9 dc a3 3c 40 6f 82 3d
       0.02799096 -0.013361496 0.02000268 0.063688755
000270 ff 66 7b 3b 2d 81 1e bc 62 00 11 3d 7e 61 81 3c
       0.003836095 -0.009674353 0.035400756 0.015793558
000280 c0 9c 15 3b 1e 24 47 3c 73 9d b9 bc d6 54 0c 3c
       0.0022829026 0.012154607 -0.022658085 0.008565148
000290 9e 2e 62 bc 2d df b5 3c e1 07 98 3d 3c a5 7f bc
       -0.01380506 0.022201145 0.07423378 -0.01560336
0002a0 4d e1 5d bd e2 8b 07 3d a3 a7 12 bd 50 20 bf 3c
       -0.05416994 0.033092387 -0.035804402 0.023330837
0002b0 92 d7 24 3d f8 e7 5c bc 0f e3 c4 3b f8 a4 03 bd
       0.040244646 -0.01348304 0.006008513 -0.03213975
0002c0 30 97 ec 3c c4 3c 69 bd 8e 95 0b bb 9b e0 3c bd
       0.028880686 -0.056942716 -0.0021298858 -0.046112638
0002d0 0e 41 38 3d 72 d9 53 3d 8e 14 10 3d 75 76 11 bd
       0.044983916 0.051721044 0.035175852 -0.03551336
0002e0 1e 9d 62 3d c7 0e df bc 88 43 d6 3c 1e 11 10 3d
       0.05532562 -0.027228726 0.026155248 0.035172574
0002f0 92 33 22 3d fc 36 d2 3c e0 bb 46 bc bf 82 a9 3d
       0.039599963 0.025660984 -0.012129754 0.08276891
000300 00 31 ff bc 1b 40 d5 3c 6b eb 80 3b 3e 2d b2 3b
       -0.031151295 0.026031544 0.003934314 0.005437522
000310 80 c2 7a 3b 61 51 7d 3d aa 4f 68 3d f3 86 b7 3b
       0.0038262904 0.061845187 0.0567166 0.005600804
000320 4b ef 4b bc 3b f3 93 bd 3c cf e6 bc 97 3a b8 bc
       -0.012447189 -0.07224127 -0.028174989 -0.022488875
000330 6e 7a b6 3c 76 c8 55 bc 4a b5 a4 3c 66 5b cf bc
       0.022275176 -0.013048282 0.020105977 -0.025312137
000340 f7 e2 5c bd 21 81 c3 3c 93 6d e4 3c ae 61 07 3c
       -0.053927388 0.023865284 0.02788428 0.008263035
000350 40 28 1d 3d aa 9d 6e bd 5b 3c 3e 3c ae 8c ef 3c
       0.038368464 -0.05825583 0.01161107 0.029241886
000360 99 d5 43 bd 69 cd 43 3d 99 ba a4 3d 29 63 a7 3c
       -0.047811124 0.047803316 0.08043403 0.020433025
000370 c5 95 8d bd fd df f5 3c 7b 11 6e 3d 8d dd 80 bc
       -0.06913332 0.030014032 0.05812214 -0.015730644
000380 8f 51 3f 3c db cd 68 3c f1 7d 5d bd 8a e5 45 bd
       0.01167716 0.014209236 -0.054075185 -0.04831461
000390 9f fb ff 3b 0c d4 fe bb b2 06 f3 bc f5 7d 06 bd
       0.007811978 -0.007776743 -0.029666279 -0.032834966
0003a0 3e 9f e9 bc 7e 39 40 3d ad 2b cf bc 5e 3a 30 bd
       -0.028518315 0.04692983 -0.02528938 -0.043024413
0003b0 ba 1a 12 3b cd f1 fd 3b 99 50 8d bd 84 8e 50 3d
       0.0022293762 0.007749772 -0.069001384 0.050917163
0003c0 37 f0 fb 3c 2d 22 bb 3c fb 11 18 bd 3b 85 21 bd
       0.030754192 0.022843445 -0.037126523 -0.0394337
0003d0 3d ff 79 bd 62 9d 34 3d f6 c6 70 bc 54 20 7d 3d
       -0.06103443 0.044095404 -0.0146958735 0.06179841
0003e0 f4 f0 a5 bb e0 75 e6 3c d7 d8 14 3d f5 89 99 3b
       -0.0050641242 0.028132379 0.036339607 0.004685635
0003f0 a9 8b 5e 3d cb bb a9 3c e9 2e c0 3b 96 de ac ba
       0.05433241 0.02071943 0.005864967 -0.0013188894

fc1.bias f4 [50]
000000 6d a6 80 3d 78 6e 3a 3d 70 cc 36 bb a6 8f 77 3c
       0.06281743 0.045515507 -0.002789285 0.015109932
000010 94 a0 9f 3c 6e dc 71 b8 8a 1c 2e 3c e1 a4 1e bd
       0.01948575 -5.766417e-05 0.010626921 -0.03873146
000020 9f 12 c4 3c 14 7b 8e 3c 8d a4 da 3c 59 e1 48 3d
       0.02393466 0.017392673 0.026689792 0.049043033
000030 23 2c 51 3b 35 90 8f 3c 96 9b 84 3b bc 3f ca bc
       0.0031917177 0.017524818 0.0040468676 -0.024688594
000040 28 14 8e 3d 2e f8 b5 3c 10 31 89 3d bb 16 d6 bc
       0.06937438 0.022213068 0.06698811 -0.026133886
000050 5a 8d 8e 3c 92 79 9c 3c b9 65 f2 bb 17 f1 56 3d
       0.017401386 0.019100938 -0.00739738 0.052476015
000060 98 90 6a 3d 74 ff 0e 3c fa b7 8a 3d a5 9e b0 bc
       0.0572668 0.008727897 0.06773372 -0.021560023
000070 16 c4 04 bd 1a 49 9e bc 11 f9 4a bc 7e da 3d 3d
       -0.032413565 -0.019321967 -0.012388484 0.04635095
000080 9f f9 e2 3c a5 df 27 bd 15 11 eb bc 15 30 ac 3d
       0.02770692 -0.04098477 -0.028694669 0.084076084
000090 71 47 91 3c 1c 21 16 bd f8 e6 47 3d 63 27 ac bc
       0.017734261 -0.03665267 0.048804253 -0.021014875
0000a0 64 78 82 3c 3d 58 91 3d 33 cc 79 3d 92 96 21 bd
       0.015926547 0.07096908 0.060985755 -0.039450236
0000b0 49 ab 80 bc be 7d b8 3c e2 5d fa bc 2e 30 31 bd
       -0.015706675 0.022520896 -0.030562345 -0.04325884
0000c0 6f aa 6e 3d 27 f7 51 3d
       0.058268007 0.051261093

fc2.weight f4 [10, 50]
000000 a6 21 a2 3e 8a df e8 bc 01 b7 93 3d f2 83 e0 3c
       0.31666297 -0.028426904 0.072126396 0.027406666
000010 d4 02 62 bd 28 f3 11 bd e9 20 0f be 26 b9 21 be
       -0.05517848 -0.035632282 -0.13977398 -0.15793285
000020 f7 06 28 bd 5d a2 fe bd 42 e5 35 be 27 2d b7 bd
       -0.041022267 -0.12433312 -0.17763236 -0.08944159
000030 91 cf 89 3c ad 47 09 3d 6c b0 4a 3e 30 e9 e4 3d
       0.016822608 0.03351562 0.19793862 0.111772895
000040 8b d5 00 3e cf 2f 52 3e f4 3f 27 3e 0e 90 cc 3d
       0.1258146 0.2052605 0.1633299 0.09988414
000050 89 42 59 bd 8a 47 ff bd e2 e4 b7 bc e8 ef ae bd
       -0.05304197 -0.12464817 -0.022448007 -0.08541852
000060 97 fc 08 bc 1f 38 1c be 35 b0 d6 bd 58 84 35 be
       -0.008361003 -0.15255783 -0.104828276 -0.17726266
000070 69 aa c3 3d 30 95 38 3e fa 7c f3 bd 97 2d d3 3d
       0.095539875 0.1802566 -0.11889072 0.1031143
000080 b9 3a b2 3e bf 6e 06 3e ad cf 08 be fc 9a 48 3e
       0.34810427 0.13128184 -0.13360472 0.19590372
000090 be e6 32 3d 13 27 50 3d 02 bf 81 bd f6 df 1f be
       0.043677084 0.050818514 -0.0633526 -0.15612778
0000a0 5b 70 cd bd 07 cf 62 be 10 01 04 3e ec ed 89 bd
       -0.10031196 -0.22149287 0.1289103 -0.06734833
0000b0 e7 0c e7 bb f7 d6 dd 3d c8 34 b4 bd 0d 10 95 bd
       -0.0070510986 0.10832017 -0.0879913 -0.07278452
0000c0 ee e5 80 3e 11 84 8b 3d 67 26 2c 3d c5 3b 7b 3e
       0.25175422 0.06812299 0.04202881 0.24534519
0000d0 db 7b e8 bd fb 4a b4 3d 5e 92 ee 3d 56 fa 9a 3d
       -0.113517486 0.08803364 0.11649011 0.07567279
0000e0 aa 41 7b be dd e7 c7 3d 1f 04 c8 bd 69 85 1a be
       -0.24536768 0.09761021 -0.09766411 -0.15089954
0000f0 4f 40 a0 3d b8 da 4e 3e 11 12 84 bd b0 09 c6 bd
       0.07824766 0.20200622 -0.064487584 -0.096698165
000100 e5 6b 06 bc 0e 1e 60 be 54 2c fa 3d ab 2a c6 3c
       -0.008204435 -0.21886465 0.12215486 0.024190268
000110 c0 93 f5 bd 65 84 86 bd 41 bb f4 bd 3c 33 a0 3d
       -0.11991072 -0.06568221 -0.11949778 0.07822272
000120 3d 32 c4 3d 12 5b 72 3e 34 6f b6 3d d3 10 6f be
       0.09579895 0.23667553 0.08907929 -0.23346262
000130 b9 fb 29 be da f2 52 3e c4 c6 79 ba 15 75 fc 3d
       -0.16599931 0.20600453 -0.00095282146 0.12327019
000140 b1 5d 38 3e 7b 66 fa 3c f2 5e 0e be 82 3a a5 bd
       0.1800449 0.030566445 -0.13903406 -0.080678
000150 76 43 46 3e 8b 41 ba bc 38 37 92 bd 72 0e 35 bd
       0.19361672 -0.022736331 -0.071394384 -0.04420323
000160 02 34 f5 3d 87 ec 11 3e f3 d1 0e be 18 2f be 3d
       0.1197281 0.14250384 -0.13947277 0.09286326
000170 3b a9 8d bd fb a1 88 be 36 fc 7c 3e 45 0a 03 be
       -0.06917044 -0.2668608 0.24705586 -0.12796886
000180 03 2e 32 be 0a 09 42 3e 11 33 d7 bd a5 2e b0 bb
       -0.17400365 0.1894876 -0.10507787 -0.005376654
000190 64 70 48 bc 89 b6 b0 bd e8 a4 c4 bd f6 4b b7 bd
       -0.012233827 -0.08628566 -0.09601766 -0.08950035
0001a0 29 e9 cf bd 2b f4 f1 3d 33 54 4d 3e f1 74 6a bd
       -0.10151894 0.118141495 0.2005165 -0.05724043
0001b0 83 7b 82 3e 18 9f c2 3d 13 e1 8a 3d 4c 71 32 3e
       0.25484857 0.09503001 0.06781211 0.17426032
0001c0 14 f3 8b 3d e4 07 9d 3e e8 f3 4a 3d d1 26 a2 3d
       0.06833473 0.30670083 0.049549013 0.0791756
0001d0 92 e1 75 bd a8 03 e3 bc 40 6f 13 be 87 40 2c be
       -0.060029574 -0.027711704 -0.14397907 -0.1682149
0001e0 05 b7 1b be 0b 75 31 3d fc e0 05 be ec 91 1d be
       -0.15206535 0.04332451 -0.13074106 -0.15387696
0001f0 84 e7 8d bd 96 04 1f be d3 46 2d be 35 8d 44 3c
       -0.06928924 -0.15529093 -0.16921549 0.011996557
000200 ab c2 68 be 92 3c 32 bc 7b e9 3e be 8e ca 4e 3c
       -0.2273051 -0.010878699 -0.18643753 0.012621535
000210 2e 0c 01 bd 8f 72 1e be 59 55 c8 3d 0a e5 3a 3e
       -0.031505756 -0.15473388 0.09781904 0.18251434
000220 ac c2 92 bd 9d d7 32 be ce f0 25 3e 8f 66 33 bb
       -0.07166037 -0.17465062 0.16205141 -0.0027374362
000230 57 29 37 3e 8c 84 f1 3d c5 be d9 bd 4c 35 dd bd
       0.17886864 0.117928594 -0.106320895 -0.10801181
000240 53 b8 01 bd 64 07 c8 3d e7 39 48 3e 86 7a 87 3d
       -0.031669926 0.09767035 0.19553338 0.06615166
000250 92 70 f5 bd 36 80 9c 3e 84 ce 52 bc 0b 4f 29 3e
       -0.11984362 0.30566567 -0.01286662 0.16534059
000260 27 4e 0c 3e b8 26 0b be e7 4d aa 3b 4e 78 12 be
       0.13701688 -0.13588989 0.005197275 -0.14303705
000270 ac 29 3b bd 48 a0 5a 3d 64 ef b3 3c 1e 1d 02 bd
       -0.04569404 0.053375512 0.021964736 -0.03176605
000280 99 54 a2 bd 85 e7 78 3e 71 d3 cf bd 5e fc 1c be
       -0.07926292 0.24307068 -0.10147751 -0.15330645
000290 43 20 41 3d 08 ce a4 bd 00 7d fa bd 29 f7 15 bc
       0.047149908 -0.0804711 -0.12230873 -0.009153166
0002a0 ef c7 19 be 7c f4 13 3e e1 17 e2 3d 89 7f 02 3e
       -0.15017675 0.14448732 0.11039711 0.12743963
0002b0 c8 7d a0 3d e2 1e a4 bd 92 d9 3e be cd b8 2a be
       0.07836491 -0.08013703 -0.18637684 -0.16672058
0002c0 56 9f 0e 3e 66 94 71 be f9 3e 19 3e 2c e1 f5 bd
       0.1392797 -0.23591766 0.14965428 -0.12005839
0002d0 95 70 6d be 4b 11 4a 3d b6 29 f0 bd d5 e7 af 3d
       -0.23187478 0.049332898 -0.11726706 0.0858914
0002e0 48 7c 4c 3e 2c a9 af 3d 54 84 95 3d ed d6 e3 3c
       0.19969285 0.08577189 0.0730063 0.027812446
0002f0 0d f2 26 be 0f d9 91 3c 1a 4d 93 3d ab ca 92 3e
       -0.16303273 0.017803697 0.0719244 0.28670248
000300 6b a2 76 be c6 9b fe 3d 21 4a 25 3d a1 fc 03 3e
       -0.24085395 0.12432055 0.040353898 0.12889339
000310 01 11 12 be ee 97 9e bd 61 a1 22 3d da a8 65 3e
       -0.14264299 -0.07743822 0.039704684 0.22427693
000320 7c 34 ef bc 56 80 b5 3b 17 9f 09 3d 41 27 0e 3e
       -0.029199831 0.0055389805 0.033598986 0.13882162
000330 0d 55 b3 3c 25 ef 23 3e 3e 9e 34 3e 26 3f 36 be
       0.021891141 0.16009195 0.1763849 -0.17797527
000340 db 95 2f bd 56 13 17 be c0 26 19 3e e1 47 70 3d
       -0.042867523 -0.1475347 0.14956188 0.0586623
000350 71 61 5b 3e f3 f3 5b be 40 eb 78 3d 3a 36 47 3e
       0.2142389 -0.21479778 0.060771227 0.1945428
000360 f1 db 5b bd 5a 13 a9 bd c5 66 2f bd 74 c9 b2 bd
       -0.05367655 -0.08255644 -0.042822618 -0.087298304
000370 f3 d4 fc bd ba a2 fc bd 9c e2 71 3e 48 72 47 3e
       -0.12345304 -0.12335725 0.23621601 0.19477189
000380 30 dc 79 3e e1 9d 07 3e a7 2a 45 bd 27 9b 3e 3c
       0.24400401 0.1324382 -0.04813638 0.011633671
000390 17 e3 0c 3e c4 08 c4 bc 1f bd c1 3c 6d 26 b3 3d
       0.13758503 -0.023929961 0.02364975 0.087475635
0003a0 39 9a 2b be 84 e1 1b be 4d 8c 05 be bb 22 cd bd
       -0.1675805 -0.15222746 -0.13041802 -0.1001639
0003b0 a0 7c c5 3d 59 8d b6 3e d3 a2 66 3d c9 33 18 3d
       0.09642911 0.35654715 0.056307625 0.03715876
0003c0 37 ec f7 bd 73 26 43 be a2 57 a7 3b f8 22 85 3b
       -0.12105601 -0.19057636 0.005106882 0.0040630065
0003d0 3a df b8 bd c4 98 be 3d da c7 28 be 5e 36 21 be
       -0.09026952 0.093064815 -0.16482487 -0.15743396
0003e0 c7 50 f0 3d e0 b3 f3 bd b1 7d a8 bd 1d 9b d2 bd
       0.11734157 -0.11899543 -0.08227099 -0.10283492
0003f0 3d 9d ad bd 09 c5 18 be f7 57 01 3d c2 04 27 3d
       -0.084772564 -0.14918913 0.03157803 0.04077602

fc2.bias f4 [10]
000000 4b a1 5f bc 5b 4c 83 3d 01 16 52 bd 75 14 30 be
       -0.013649295 0.06411048 -0.051290516 -0.17195304
000010 f2 67 e5 3d a0 26 91 3c 4d 5b 57 bd a2 4c 7f bd
       0.112014666 0.017718613 -0.052577306 -0.062328942
000020 16 5f 45 bd fb f1 bc bd
       -0.048186384 -0.092258416
